…
 class="n"&gt;summary&lt;/span&gt;&lt;span class="p"&gt;())&lt;/span&gt;
&lt;/pre&gt;&lt;/div&gt;


&lt;div class="highlight"&gt;&lt;pre&gt;&lt;span&gt;&lt;/span&gt;&lt;span class="c"&gt;Model: &amp;quot;sequential&amp;quot;&lt;/span&gt;
&lt;span class="err"&gt;_________________________________________________________________&lt;/span&gt;
&lt;span class="err"&gt;Layer (type)                 Output Shape              Param #   &lt;/span&gt;
&lt;span class="err"&gt;=================================================================&lt;/span&gt;
&lt;span class="err"&gt;time_distributed (TimeDistri (None, 12, 114, 114, 16)  160       &lt;/span&gt;
&lt;span class="err"&gt;_________________________________________________________________&lt;/span&gt;
&lt;span class="err"&gt;time_distributed_1 (TimeDist (None, 12, 57, 57, 16)    0         &lt;/span&gt;
&lt;span class="err"&gt;_________________________________________________________________&lt;/span&gt;
&lt;span class="err"&gt;time_distributed_2 (TimeDist (None, 12, 57, 57, 16)    0         &lt;/span&gt;
&lt;span class="err"&gt;_________________________________________________________________&lt;/span&gt;
&lt;span class="err"&gt;time_distributed_3 (TimeDist (None, 12, 55, 55, 32)    4640      &lt;/span&gt;
&lt;span class="err"&gt;_________________________________________________________________&lt;/span&gt;
&lt;span class="err"&gt;time_distributed_4 (TimeDist (None, 12, 27, 27, 32)    0         &lt;/span&gt;
&lt;span class="err"&gt;_________________________________________________________________&lt;/span&gt;
&lt;span class="err"&gt;time_distributed_5 (TimeDist (None, 12, 27, 27, 32)    0         &lt;/span&gt;
&lt;span class="err"&gt;_________________________________________________________________&lt;/span&gt;
&lt;span class="err"&gt;time_distributed_6 (TimeDist (None, 12, 13, 13, 32)    9248      &lt;/span&gt;
&lt;span class="err"&gt;_________________________________________________________________&lt;/span&gt;
&lt;span class="err"&gt;time_distributed_7 (TimeDist (None, 12, 4, 4, 32)      0         &lt;/span&gt;
&lt;span class="err"&gt;_________________________________________________________________&lt;/span&gt;
&lt;span class="err"&gt;time_distributed_8 (TimeDist (None, 12, 512)           0         &lt;/span&gt;
&lt;span class="err"&gt;_________________________________________________________________&lt;/span&gt;
&lt;span class="err"&gt;dropout_2 (Dropout)          (None, 12, 512)           0         &lt;/span&gt;
&lt;span class="err"&gt;_________________________________________________________________&lt;/span&gt;
&lt;span class="err"&gt;lstm (LSTM)                  (None, 32)                69760     &lt;/span&gt;
&lt;span class="err"&gt;_________________________________________________________________&lt;/span&gt;
&lt;span class="err"&gt;dropout_3 (Dropout)          (None, 32)                0         &lt;/span&gt;
&lt;span class="err"&gt;_________________________________________________________________&lt;/span&gt;
&lt;span class="err"&gt;dense (Dense)                (None, 16)                528       &lt;/span&gt;
&lt;span class="err"&gt;_________________________________________________________________&lt;/span&gt;
&lt;span class="err"&gt;dense_1 (Dense)              (None, 1)                 17        &lt;/span&gt;
&lt;span class="err"&gt;=================================================================&lt;/span&gt;
&lt;span class="err"&gt;Total params: 84,353&lt;/span&gt;
&lt;span class="err"&gt;Trainable params: 84,353&lt;/span&gt;
&lt;span class="err"&gt;Non-trainable params: 0&lt;/span&gt;
&lt;span class="err"&gt;_________________________________________________________________&lt;/span&gt;
…
